dqeaf550.pt (torch_old, 595284 bytes, 6 tensors)

layers.0.weight f4 [256, 513]
000000 1a e8 fd 3c c9 c3 b1 bb b3 8f 1a 3c cc b3 05 bc
       0.030994464 -0.0054249507 0.009433675 -0.008160543
000010 4f 46 3f 3d be 9c a6 3b 02 b0 cf 3c 91 64 3a 3d
       0.04669791 0.005084603 0.025352482 0.045506064
000020 20 90 84 3c c1 55 1d 3d 36 30 e7 3c 82 b5 fe 3c
       0.016182005 0.03841186 0.028221231 0.031092409
000030 8d 8b 83 3b 0c 23 cf bc f3 55 18 bc 73 c9 24 3d
       0.0040144385 -0.025285266 -0.009297836 0.04023118
000040 b2 50 9c bc ad d1 64 3b 5a d7 d1 3c e6 58 b6 3c
       -0.019081447 0.0034915016 0.025615383 0.022259187
000050 45 49 2c 3d f8 b7 10 bd 44 2d 68 bb e9 4c d3 bb
       0.042062063 -0.035331696 -0.003542737 -0.0064483774
000060 18 12 a3 bc d9 ae dd bb e6 4f db 3b 48 b6 15 bd
       -0.019906089 -0.006765228 0.0066928742 -0.03655079
000070 22 99 b9 bb db ce 39 3d 2e ca d6 3c 1c 4e 4d 3b
       -0.005664007 0.04536329 0.026219454 0.0031327074
000080 8b 2e 09 bd 07 c0 16 3d f4 0f 9f 3c 5b 92 0c bc
       -0.033491652 0.036804225 0.019416787 -0.008579816
000090 29 a0 1c 3d 69 e6 79 bc 23 e5 39 3c c8 9c c4 bc
       0.038238678 -0.015252688 0.011346134 -0.02400054
0000a0 c3 5e 19 3d 5a 8e e0 bc 73 bb 9a 3c 6d 58 91 3c
       0.037443887 -0.027411629 0.01888821 0.01774236
0000b0 35 47 28 3d d1 cc b7 ba 42 65 0d bd 05 56 34 3d
       0.041083533 -0.0014022832 -0.034520395 0.044027347
0000c0 a1 1c d9 bb f7 a2 c0 3b 0a f9 a0 bb db 52 16 bc
       -0.0066257273 0.005878802 -0.0049125003 -0.009175028
0000d0 8f 21 b7 bc 37 a3 18 3c d1 e9 18 3d 89 75 94 bc
       -0.02235487 0.009316257 0.03733236 -0.018122451
0000e0 48 e3 d7 bc 99 fd 9b 3c 1f f6 bb bc 26 81 38 bb
       -0.026353493 0.019041823 -0.022944508 -0.002815315
0000f0 67 9c 09 3d 43 4c 7a bb d2 4b d5 3c b1 c6 30 3d
       0.033596423 -0.0038192428 0.02603713 0.043158237
000100 d1 2b 6d bc 87 64 4a 3d 42 ec fc 3c 34 16 50 3c
       -0.014475779 0.049412277 0.030874375 0.012700606
000110 e2 c6 ee 3c 48 b9 ea bb 6f 53 47 bc 39 1e 0b bd
       0.02914757 -0.0071632005 -0.012165888 -0.03396437
000120 f5 77 9b bc 62 ba 04 3d fa 46 b1 bb a6 57 d7 3c
       -0.018978098 0.03240431 -0.0054100724 0.026286911
000130 d1 f9 05 3d d2 8c e1 3c 37 e0 30 3c 32 06 a4 3c
       0.032708947 0.027532969 0.0107956445 0.020022485
000140 a0 21 01 3d aa db e8 3c 1a fd d9 bc 95 22 06 3c
       0.031526208 0.028425056 -0.026609946 0.008186956
000150 a8 2d 1f bc 3e 96 f0 3b 8e 53 29 3b 3f 60 09 3d
       -0.009715475 0.007342129 0.0025837156 0.033539053
000160 e2 3c fb bc 27 06 0d 3d 85 8e 26 3d 65 cc 17 3d
       -0.03066868 0.034429695 0.04066326 0.03706016
000170 9b b1 48 3d a9 82 49 3d 59 15 09 3d 5e fd a8 3b
       0.048997503 0.049196873 0.033467624 0.005157157
000180 81 04 d2 bb f8 ee 83 bc 73 a4 10 3d 55 58 0c 3d
       -0.0064092283 -0.01610516 0.03531308 0.034263927
000190 18 c9 b9 3c 19 7e 44 3d 4a be 01 bd d1 e7 05 3c
       0.022678897 0.04797182 -0.031675614 0.008172945
0001a0 26 ca de 3c b7 e1 0a 3d 83 12 06 bd ff 3c 00 bd
       0.027196001 0.033906665 -0.032732498 -0.03130817
0001b0 e9 7c 10 3d 72 5e bf bc 73 a1 38 bc 73 a8 0e 3d
       0.035275374 -0.023360465 -0.011268961 0.034828614
0001c0 62 e7 90 3c 48 37 40 b9 58 55 89 bc ef ba 28 3d
       0.017688457 -0.00018331141 -0.016764328 0.0411939
0001d0 2a 74 a6 bc f1 e3 07 3d 0e 08 f4 3c a7 77 43 3c
       -0.020319063 0.033176366 0.029788997 0.011930383
0001e0 07 2b 88 3b 0b 12 6d 3c 02 21 e3 3c 11 5b 2e 3d
       0.00415552 0.014469634 0.0277257 0.042567316
0001f0 03 68 2e 3d d1 36 29 3d 1a 21 be bc af bf 4e 3d
       0.042579662 0.041312043 -0.023209143 0.050475772
000200 66 a0 75 bb 49 4f 8a 3c d2 58 83 3c 45 bc 0d 3d
       -0.0037479638 0.01688351 0.016033564 0.034603376
000210 8d d9 41 bc 45 f8 62 bb e5 32 07 3c f4 3e fe bc
       -0.011831653 -0.0034632843 0.00825188 -0.031035878
000220 64 03 d8 bc de 2a 03 3b 19 83 13 3d c7 41 13 bd
       -0.026368804 0.0020014565 0.036013696 -0.035951402
000230 33 09 f9 bc 75 16 16 bc 42 a6 ab bc 8e 9a a8 3b
       -0.030399894 -0.009160628 -0.020953301 0.0051453775
000240 c6 11 e5 bc 41 dc 06 3d 15 4e 4b bc 43 1c 75 3c
       -0.027962577 0.032924894 -0.012408753 0.014960351
000250 31 5d aa 3c bd 0e 45 3d 09 d1 42 3d 0d 22 36 3b
       0.02079639 0.04810976 0.047562633 0.0027791292
000260 e9 c9 33 bc 7f a5 34 bc e8 bf e2 bb 74 21 a9 bc
       -0.010973432 -0.0110257855 -0.0069198497 -0.020645835
000270 2c ed d6 bc b3 6e 2b 3c 11 c3 2d 3d fe 58 d8 3c
       -0.02623614 0.0104634045 0.042422358 0.026409622
000280 38 47 b5 3c d2 c7 09 bd 49 3e bc bc 2b c6 1f 3d
       0.022128686 -0.03363783 -0.022978919 0.039007347
000290 77 88 0d 3d ba a9 b9 3c af b5 c4 3b 32 38 a0 3a
       0.03455397 0.02266394 0.0060031037 0.0012223779
0002a0 3f 35 28 3c 44 0c b9 bc 8f 19 4f 3d 0e 72 d9 bc
       0.010266601 -0.022588857 0.050561484 -0.026543643
0002b0 ed 63 3f 3d 6d 53 04 bc 36 e1 c7 3c 1f 73 51 bc
       0.046726156 -0.008076531 0.024399381 -0.012783795
0002c0 d2 9f e2 bc f9 c6 c5 bb 9c 58 af 3c eb 42 0b 3d
       -0.027664099 -0.0060356823 0.021404557 0.033999365
0002d0 cd f7 38 3d 15 86 77 bc 78 b4 87 3c 9d d8 9c bc
       0.045158196 -0.015107651 0.016565546 -0.019146258
0002e0 0f c0 4e 3c cb ae 86 bc ff a8 1d 3c 6f 62 86 bc
       0.0126190325 -0.01644077 0.009622811 -0.016404359
0002f0 9e 98 cb bc 2c c4 d6 bc 0a b0 c8 3c 6b 5d 89 3c
       -0.024853047 -0.026216589 0.024498004 0.016768178
000300 8b fc 54 bc 8a fe 0e bd 4c 78 c0 3c e3 21 09 3d
       -0.012999664 -0.034910716 0.023494862 0.033479583
000310 0e 30 8c 3c df b3 48 3d 49 2b dd bc 41 38 4a 3d
       0.017112758 0.048999663 -0.026998179 0.049370054
000320 e9 1f 1a 3d cf de 64 3c 78 21 8e bc b3 ef f7 bc
       0.03762809 0.013969137 -0.017349944 -0.030265665
000330 e0 79 cd bc e3 e0 84 3c ef 8c 0e 3d ab 8c 0a bd
       -0.025082529 0.016220516 0.034802373 -0.033825558
000340 6d db 3e bc 80 a5 df bc e2 3a a4 3c 7b 44 37 bc
       -0.011648995 -0.027300596 0.020047609 -0.011185761
000350 f1 e9 06 3d ca 4e 8d bc 1c 39 c4 3c 73 38 22 3c
       0.032937948 -0.017249484 0.023953013 0.009901154
000360 8b c9 9a 3c 6c 05 b4 3c 34 90 8e bc ad 88 d4 bb
       0.018894931 0.021975242 -0.017402746 -0.0064860196
000370 b6 dc bd bc 7d 16 60 3b 94 80 c5 bc ec b7 02 bd
       -0.023176532 0.0034193092 -0.024109162 -0.031913683
000380 e2 c1 f6 3c 79 0f 02 3d ce 1a d6 bc 42 ec 9e bb
       0.030121747 0.031753037 -0.026135828 -0.0048499415
000390 cd 16 01 3b 83 39 3c 3d 7a f1 f3 3c cf c9 50 3d
       0.0019697428 0.045953285 0.029778231 0.05097371
0003a0 2d d7 40 3d 40 f6 85 3c 1d bf 2a bc 02 fb d8 3c
       0.047080208 0.016352773 -0.0104215415 0.026486877
0003b0 72 17 c8 bc 40 dd ea bc 71 d9 d0 38 0b dd 7d 3c
       -0.024425242 -0.028669953 9.9587145e-05 0.015494595
0003c0 1d eb fb 3b 41 42 44 3d 78 17 e3 bb 08 99 70 3c
       0.00768794 0.047914747 -0.006930288 0.014684923
0003d0 f1 0c dd bc 0a c7 c2 3c 7a bb f9 bb 5a 27 b9 bc
       -0.02698371 0.02377655 -0.007621226 -0.022601772
0003e0 15 ba 25 bb 92 3c fa 3c 55 fb 06 bd 1b 8d 3b 3c
       -0.0025287915 0.03054646 -0.032954533 0.011447216
0003f0 5d 28 70 3b 4c 29 df bc 8f 54 66 3c db 03 59 3c
       0.0036645152 -0.027241372 0.014058246 0.013245548

layers.0.bias f4 [256]
000000 d5 3f 82 bc ce 64 af 3c 78 02 24 3c c0 de cc ba
       -0.015899578 0.021410372 0.010010354 -0.001563035
000010 58 85 44 3c e6 f7 50 3c 6f 5f 34 3c 2a eb b4 3c
       0.011994682 0.012754416 0.011009081 0.022084791
000020 60 a5 fe bc 4c 99 a4 bc 5b 6a d3 bc a0 8a 20 3b
       -0.031084716 -0.020092629 -0.02580755 0.002449669
000030 db e6 29 bd 9d f0 15 bd 6b fd 04 bd e8 00 ed bc
       -0.041479927 -0.03660642 -0.03246824 -0.028931096
000040 00 25 e0 bb 1d 90 96 3c aa b4 0b 3c 90 08 4e bb
       -0.0068403482 0.018379265 0.00852696 -0.003143821
000050 ea 02 99 bc db 1e e1 3b 42 61 fb bc ad 44 c8 3c
       -0.018678147 0.0068701333 -0.030686025 0.02444681
000060 1d bc 3c bd b2 1b 16 bd 35 ef 0d bd ae fa 5b bc
       -0.046077836 -0.036647506 -0.034651954 -0.013426466
000070 49 fa 2c bd 80 d6 4a 3b 96 ff 7a bc c0 ab f5 bb
       -0.042230878 0.0030950606 -0.0153197255 -0.007497281
000080 1f a2 dc bc c0 9c 86 bb aa 5f df 3c 4e 84 f0 3c
       -0.026932774 -0.0041080415 0.027267296 0.029359963
000090 57 e4 f0 3c 9e 1f f7 3c 74 00 36 bc c0 4f 45 3c
       0.029405756 0.030166443 -0.0111085065 0.01204294
0000a0 b2 14 81 3c d8 90 a2 bb 24 f3 49 bd 94 20 4e bc
       0.015756939 -0.0049611144 -0.049304143 -0.012581009
0000b0 b1 be fa bb 00 8f b1 39 7d 1e 31 bd 80 bd 2c 3c
       -0.0076521267 0.00033866614 -0.043241967 0.010543227
0000c0 a0 70 6e bc 70 39 00 3d 68 5e 41 3c 38 d2 95 3c
       -0.014553219 0.031304777 0.011802293 0.018288717
0000d0 d4 c5 94 3c 2d 8f b5 3c 08 b1 eb bb d7 91 95 3a
       0.018160738 0.022162998 -0.0071927346 0.0011411262
0000e0 12 9d 34 3b 35 66 0e 3d b1 d9 a4 bc a5 a0 19 bd
       0.0027559442 0.03476544 -0.020123335 -0.03750672
0000f0 09 ad b0 bc 58 9e 87 bb 67 00 f4 3c 2e ec 0f bd
       -0.021566885 -0.004138749 0.029785348 -0.035137348
000100 be 52 3e bd db bc 63 bc 80 82 8b 3c 54 be 22 bc
       -0.046465628 -0.013900007 0.01703 -0.009933073
000110 c4 da 10 bb 8d ff 43 bc 13 d1 d2 bc 60 97 15 bc
       -0.002210305 -0.0119627835 -0.02573446 -0.009130329
000120 27 a4 c1 bc 02 84 a1 3b be 77 0f bd 4b b6 d9 bc
       -0.023637844 0.0049290666 -0.035026304 -0.026576182
000130 10 fe d6 bc 9c 60 28 3c 63 e7 2e 3d d6 e3 ac bc
       -0.026244193 0.01027694 0.042701136 -0.021104734
000140 02 c0 9a 3c 8a 5f b4 bc ca 8d f1 bc 94 bc 28 bd
       0.018890385 -0.022018213 -0.029486556 -0.041195467
000150 cb e0 69 3c a3 2d 71 bc 58 e3 6f 3c 00 c5 36 3b
       0.014274786 -0.014720353 0.014641605 0.0027888417
000160 1d 5f 5b 3c 04 8c 90 3c 2a bd f1 bc 48 93 f7 3b
       0.013389376 0.01764489 -0.029509146 0.007555399
000170 de 1e c5 3c a0 cf d2 3a 39 d6 4e bd 02 ef db 3c
       0.02406257 0.0016083606 -0.050497267 0.026847366
000180 c6 94 f0 3c e7 41 ac bc f1 50 07 bd 58 a6 00 bc
       0.029367816 -0.021027518 -0.033036176 -0.007852159
000190 be f9 ab bc cf 2f 51 3c 3a 2c 15 3c e2 bd cc 3c
       -0.02099311 0.012767746 0.009104783 0.024992887
0001a0 2c 8d 35 3c a4 05 80 3b a5 f2 a8 3c 7e 95 c1 3c
       0.011081021 0.0039069224 0.020623514 0.023630854
0001b0 c0 98 56 ba 7a ad d0 3c d9 11 f2 bb 26 1e 0c 3d
       -0.00081862137 0.025473345 -0.0073873815 0.03420844
0001c0 1a a0 66 bc b8 9e 05 bd 64 2c 64 3c ea 57 c1 3c
       -0.014076257 -0.03262207 0.013926599 0.023601491
0001d0 32 11 d3 3c 57 62 cc bc c3 9f a7 bc 02 ad 5a bb
       0.025765035 -0.024949236 -0.020461923 -0.003336728
0001e0 28 03 21 bd 40 06 64 3b 83 87 e3 bc d4 21 b6 3c
       -0.03930965 0.0034793764 -0.027774578 0.022232927
0001f0 01 f8 4c bd 77 f4 2c 3d 62 0a 25 bd 0d bc 10 bd
       -0.050041202 0.042225327 -0.040293105 -0.03533559
000200 2e 7d aa 3c 6b 4f f7 bc d8 9b b7 3b 00 1f 7b bb
       0.020811643 -0.030189237 0.005603295 -0.0038318038
000210 35 a9 2d 3d 5c 2d 31 bc 4b 64 c4 3b 4f b7 2e 3d
       0.042397697 -0.010814037 0.005993401 0.042655285
000220 95 47 b5 bc 5d 05 d6 bc 09 a6 ab bc 49 ab 70 bc
       -0.02212886 -0.026125604 -0.020953195 -0.014689275
000230 88 51 a9 bc 96 91 fd bc 38 2e 18 bd 51 d8 10 3d
       -0.02066876 -0.03095321 -0.037153453 0.035362545
000240 d1 f8 5b bd 03 2a 17 3d 77 77 95 3c 96 fd af 3c
       -0.053704087 0.0369053 0.018245442 0.021483224
000250 4e e1 fa 3c d4 3c 06 bd 08 1b 04 bd 9d 39 2c bd
       0.030625012 -0.032772854 -0.03225234 -0.04204713
000260 e9 39 0f bd 0a 9a 17 bd e5 d6 93 3c d0 84 38 bb
       -0.034967337 -0.037012137 0.018046806 -0.0028155334
000270 b0 1e 48 bd da 78 d0 3c 28 2c 38 bb fb 22 3d bd
       -0.04885739 0.025448252 -0.002810249 -0.046175938
000280 28 4c ff bc 03 13 bc bc 7a 5d 85 bc e5 8a 03 3d
       -0.031164244 -0.022958284 -0.016279925 0.032114882
000290 e8 e8 49 bc 3e 93 f5 3b 1e 6d f5 3c 89 ed 19 3d
       -0.012323596 0.0074943593 0.029959258 0.037580047
0002a0 30 6d 61 3c 1e cc ea bc a0 83 20 3c 4f 72 0a 3d
       0.0137589425 -0.028661784 0.009797007 0.03380042
0002b0 0f 6c b9 ba 6d a4 28 bd 31 26 99 bc 89 8d 17 bc
       -0.0014146584 -0.041172434 -0.018694969 -0.009250053
0002c0 26 be 1d bd ee 7d 1f bd df 56 ee bc e8 0d 46 3c
       -0.038511418 -0.038938455 -0.029094158 0.012088276
0002d0 bf 4e b7 bc e3 cf c7 3c d9 de 19 bd d9 cd 16 3d
       -0.022376416 0.02439112 -0.03756604 0.036817405
0002e0 b4 2a 21 bd 00 18 60 3b d2 14 2c bd dc e3 fe bc
       -0.039347365 0.0034193993 -0.042012043 -0.031114511
0002f0 88 ae 02 bd 40 5b 1f ba e5 1a dd bb fa a9 c1 bc
       -0.031904727 -0.0006078966 -0.006747591 -0.023640621
000300 b0 51 11 3b 25 63 ac bc 28 a2 70 3c c5 f6 d5 bc
       0.0022173934 -0.02104337 0.014687099 -0.026118645
000310 6b ed 4e bc 96 b4 40 bd a7 26 c7 bc b0 e4 a0 bc
       -0.012629847 -0.04704722 -0.024310423 -0.019640297
000320 94 35 5a bc 1a 9f f9 bc 76 00 e6 bc a4 12 85 bc
       -0.013318438 -0.030471373 -0.028076392 -0.01624424
000330 91 d8 58 bb 5f 80 e1 3c aa ea fd 3c 45 06 26 bd
       -0.0033088068 0.027527032 0.030995686 -0.040533323
000340 91 1f 19 3d 5b cd 03 3d 30 1e 30 bd 10 12 b7 bc
       0.03738362 0.032178264 -0.04299754 -0.02234748
000350 2e f8 d4 3c 8e e4 ae 3c 69 53 9d 3a 9d e1 9d 3b
       0.025997248 0.021349218 0.0012003008 0.004818155
000360 ff 6e 6a 3c 26 0b f6 3c 88 40 f6 3b ca ec 95 bc
       0.01430869 0.030034613 0.007515017 -0.018301386
000370 66 0d ad 3c 34 3a 12 bc 32 2f 13 bd 3b a2 c0 3c
       0.021124553 -0.0089250095 -0.03593368 0.023514858
000380 3c d4 84 bc 99 6f c4 3c 9b e1 0d 3d 6b be d7 bc
       -0.016214482 0.023978995 0.034638982 -0.026335916
000390 58 ad 95 bc 02 ec 33 bd 9c 0d ef bb 00 f8 57 39
       -0.018271133 -0.043926246 -0.0072953235 0.00020596385
0003a0 48 28 2c bd d8 24 39 39 62 fd 8e 3c 32 d5 f1 3b
       -0.042030603 0.000176567 0.017454807 0.007380151
0003b0 67 b4 fb bc c4 b1 ad 3c c8 85 1c bc f3 6f 19 3b
       -0.030725671 0.02120293 -0.00955338 0.0023412674
0003c0 72 b1 1f bd 08 9b eb bc b0 0f fa bc f9 13 b7 3c
       -0.038987584 -0.028760448 -0.030525059 0.02234839
0003d0 6e 12 1f bb 7f 7e 44 bc 01 a5 0b 3d e8 5a ef 3c
       -0.002427246 -0.01199305 0.034092907 0.029218152
0003e0 2e 1a 82 3c 98 95 26 bd e0 e1 4a 3c 0a 80 f9 3b
       0.015881624 -0.040670007 0.012382954 0.0076141404
0003f0 01 98 11 3d 6d 49 f3 3b ae 38 73 bc 43 7f b3 bc
       0.035545353 0.0074245245 -0.014845056 -0.021911269

layers.2.weight f4 [64, 256]
000000 f2 6e 4a 3d 2e df 2b 3d 0e bf 1c 3d 38 0d 59 3d
       0.049422212 0.041960888 0.03826814 0.052991122
000010 7c 4d 23 bd 98 6e dc 3c 54 41 66 bd 90 09 ca 3c
       -0.039868817 0.026908204 -0.056214646 0.024662763
000020 ba 49 73 bd 40 6c 50 bb aa 05 09 3d e8 04 21 bd
       -0.059396483 -0.0031802803 0.033452667 -0.03931132
000030 30 3a 41 3c ee 91 4b 3d be c1 0b bd 04 ed fb bc
       0.011793658 0.049699716 -0.034120314 -0.030752666
000040 ca 81 37 3d 50 2d 62 bc 14 e4 4a 3d 88 81 63 bd
       0.04480151 -0.013804749 0.04953392 -0.055543453
000050 3c 22 fa 3c d0 ee be bc 70 f8 94 bc 40 2f 7c 3c
       0.030533902 -0.023307234 -0.01818487 0.015392125
000060 40 c3 05 3c 50 65 49 bc cc d4 de 3c 28 44 56 3d
       0.008164227 -0.012292221 0.027201079 0.052311093
000070 66 44 2d bd 7c 64 ba 3c aa bf 15 bd b4 dd ec 3c
       -0.042301558 0.022752993 -0.03655974 0.02891431
000080 f4 3b ac 3c 50 fa 10 3c 16 db 72 bd e4 f4 83 3c
       0.021024682 0.008848742 -0.059290968 0.016107984
000090 22 11 56 bd 00 23 a9 39 74 33 46 bd 06 33 57 bd
       -0.052262433 0.0003226027 -0.048388913 -0.052538894
0000a0 ca 56 6c bd 14 f1 1b bd e4 76 76 bd 00 88 05 bb
       -0.057699956 -0.038071707 -0.060171977 -0.0020375252
0000b0 d4 01 3d bd 00 0f c5 3c 98 42 08 3d e8 a5 4c 3c
       -0.04614432 0.024055004 0.033266634 0.012490727
0000c0 0c af 50 3d 88 10 fe 3c 5c 91 a7 bc 26 2e 20 bd
       0.050948188 0.031013742 -0.020455055 -0.03910651
0000d0 f0 a4 ec bb 68 18 31 bd 86 31 48 3d 44 9b 58 3d
       -0.0072218105 -0.043236166 0.048875354 0.052882448
0000e0 40 8d 1a bc 40 e5 81 3c dc c2 fc bc 90 0d 5e bc
       -0.009433091 0.015856385 -0.030854635 -0.013553038
0000f0 d8 e2 ac 3c e6 a4 5c bd b4 04 50 bd 26 ab 18 bd
       0.021104261 -0.053868197 -0.050785735 -0.037272595
000100 44 4c c4 bc 7c a7 2c 3d a0 3b 1b 3b a2 94 25 bd
       -0.023962148 0.042151913 0.0023686662 -0.04042495
000110 00 fa a2 3a b0 cf 8b bb b0 ec a5 bc 1e b5 33 bd
       0.0012434125 -0.0042667016 -0.020254463 -0.0438739
000120 bc f9 47 3d ec a0 a1 bc 38 2d 26 3c 1c 99 88 bc
       0.04882215 -0.019730054 0.010142617 -0.01667457
000130 26 e7 47 3d 0c 8b 2d 3d 08 cb ba 3c 30 f0 fa 3b
       0.048804425 0.042368934 0.022801891 0.007658027
000140 8c 30 c0 bc 3a bb 37 3d 3c 0e 6c bd fc 21 00 3d
       -0.023460649 0.044856288 -0.057630762 0.03128241
000150 36 5c 77 bd 44 4a 04 bd 90 60 74 bc 50 6b f8 bc
       -0.060390674 -0.032297388 -0.0149156 -0.030324608
000160 7e 1f 7d 3d f0 3e b6 3b 0a 50 42 bd 6c ea 17 3d
       0.06179761 0.005561702 -0.047439612 0.037088796
000170 f4 c0 25 3d 90 8c 9e 3c c0 3c 64 3c 96 ac 4b 3d
       0.040467218 0.019354135 0.0139305 0.049725138
000180 f0 38 5f 3c f8 24 fd 3c 8c 6b a8 3c 58 b4 1f bc
       0.013624415 0.030901417 0.020559095 -0.009747587
000190 46 0f 4b 3d f4 da d7 bc 20 8c 34 bc 5c 03 94 bc
       0.049575113 -0.026349522 -0.0110197365 -0.018068008
0001a0 c8 87 60 bd c0 54 d1 bb 1e 4d 4f 3d fc 35 9c bc
       -0.05481699 -0.006388277 0.050610654 -0.01906871
0001b0 4c db 1a 3d 64 7c c6 bc e6 5c 20 bd 4e f5 06 bd
       0.037806794 -0.024229236 -0.039151095 -0.032948785
0001c0 c0 88 9f 3a 50 aa f5 3c a0 05 56 bd a2 fe 39 bd
       0.0012171492 0.029988438 -0.05225146 -0.045408852
0001d0 f0 0c 1b bc 08 d2 d7 bc 60 aa a7 3b de d6 6a bd
       -0.009463534 -0.026345268 0.005116746 -0.05733382
0001e0 0c f5 c8 bc 60 3e 84 bb 9c 37 49 bd 10 5a f6 3b
       -0.02453091 -0.004035756 -0.0491253 0.0075180605
0001f0 0a ce 50 3d 82 70 1d bd b0 9a 71 bc b0 7a 5e bc
       0.050977744 -0.038437374 -0.014746353 -0.013579056
000200 18 dc 7b bc 14 e1 26 bd d0 70 db bb 20 27 79 bd
       -0.015372299 -0.040741995 -0.006696798 -0.060828328
000210 42 41 36 bd 72 d9 69 bd ac ee a7 bc 40 a8 f7 ba
       -0.04449583 -0.057092138 -0.02049955 -0.0018894747
000220 78 43 18 3c 74 aa 90 3c a8 6b ed bc 70 c2 71 3d
       0.00929343 0.017659403 -0.028981999 0.05902332
000230 80 79 d1 3a 00 c9 65 ba 10 d0 5e bc ec 5b d0 3c
       0.0015981644 -0.0008765608 -0.013599411 0.025434457
000240 8c 05 18 3d 96 98 3b bd 60 b9 a9 bb 08 a3 0e 3d
       0.037114665 -0.045799814 -0.005179569 0.034823447
000250 4e dc 1e 3d b0 f5 1c 3d 10 e5 26 3d c4 7a d7 bc
       0.038784318 0.038320243 0.040745795 -0.026303656
000260 32 6b 15 bd 60 bf ca bb f0 29 f3 3b 38 77 15 bc
       -0.036479183 -0.0061873645 0.007420771 -0.009122662
000270 50 d5 25 bc cc 1b 89 3c f0 03 28 3d 80 f8 34 bb
       -0.010121658 0.016736887 0.04101938 -0.0027613938
000280 20 a1 94 bc 8c 43 72 3d 00 27 b7 3b a4 4d 75 3d
       -0.018143237 0.05914645 0.005589366 0.059888497
000290 b8 24 63 3c 40 96 b4 ba 70 ce f7 bc f0 12 23 bc
       0.013863735 -0.0013777688 -0.030249804 -0.0099532455
0002a0 5c ee e5 3c b0 34 fe bb 80 59 c3 bb e0 88 d5 bc
       0.02806776 -0.0077577457 -0.005961597 -0.026066244
0002b0 8c 21 ef bc 56 69 26 3d c0 49 3a 3b 60 8f 3d bc
       -0.029190801 0.0406278 0.0028425306 -0.011569828
0002c0 b4 3c 1a 3d a0 a1 3b bd 26 04 35 bd e8 47 29 bd
       0.037655547 -0.045808434 -0.04419341 -0.04132834
0002d0 00 36 3e ba 80 d6 d7 bb 44 f8 92 3c b0 30 1f 3d
       -0.00072559714 -0.0065868497 0.017940648 0.03886479
0002e0 4e 12 78 3d 80 78 c8 3c c0 28 c2 ba c0 66 da ba
       0.06056433 0.024471521 -0.001481317 -0.0016662702
0002f0 c0 54 a3 bb 90 8f 90 3c 78 d2 78 bd 58 15 6e 3c
       -0.004984468 0.017646581 -0.060747594 0.014531456
000300 34 7f 2e 3d 40 2c 7c bc 24 41 25 bd 6a 16 3c 3d
       0.04260178 -0.015391409 -0.040345326 0.045919813
000310 78 35 26 3d 00 36 73 bc 30 54 f9 3c aa ed 02 bd
       0.040578336 -0.014844418 0.030435652 -0.031964935
000320 20 7d d1 3b 5a 20 0b bd f0 33 07 3d c0 43 ea bb
       0.00639309 -0.0339664 0.033008516 -0.0071491897
000330 a2 f0 11 bd b8 0a 1c bd 64 15 46 3d b8 b7 98 3c
       -0.035629876 -0.03809616 0.048360243 0.018642291
000340 18 6c c1 bc 90 02 ad 3b cc 96 06 bd 3e 8f 58 3d
       -0.023611113 0.0052798465 -0.032858655 0.05287098
000350 58 d1 36 3d ea 22 7d bd 56 6a 7a 3d 54 4d b4 3c
       0.04463324 -0.061800875 0.061136566 0.02200953
000360 c0 70 ad 3a 80 70 3b bd 2a f9 16 3d 28 ed 54 bd
       0.0013232455 -0.045761585 0.036858715 -0.051983982
000370 9e 9a 7a bd 0c 61 3e 3d b6 31 44 bd 24 28 ea bc
       -0.06118261 0.04647927 -0.04789897 -0.028583594
000380 ac aa 09 3d e0 d7 33 bb b6 f5 2e bd 62 92 53 bd
       0.03361003 -0.0027441904 -0.042714797 -0.051653273
000390 1a e9 44 bd 0e 5c 4d 3d 14 24 d5 bc 20 7b 8a bb
       -0.048073865 0.05013662 -0.02601818 -0.0042261034
0003a0 de 8c 28 bd 78 c1 88 bc 04 c3 8a bc 30 ff a6 3b
       -0.041149966 -0.016693816 -0.016938694 0.0050963387
0003b0 06 e9 61 bd 0c 52 6c bd a0 88 0b 3b b0 84 a9 3c
       -0.05515387 -0.057695433 0.0021291152 0.020693153
0003c0 98 15 2a bc c0 84 b0 3a ce 7d 67 bd 34 e3 06 bd
       -0.010381125 0.0013467297 -0.05651646 -0.03293152
0003d0 e4 1a 18 3d 22 7c 5d 3d 28 02 ba 3c f4 20 45 3d
       0.03713502 0.05407346 0.022706106 0.04812713
0003e0 4c 5d b5 bc 70 c6 94 bc 26 fb 3f 3d a6 3c 59 3d
       -0.022139214 -0.018161029 0.046870373 0.053036354
0003f0 70 0f c4 bc 68 97 9b 3c d8 cf 32 3d b6 7f 03 3d
       -0.023933142 0.018993095 0.043655246 0.032104217

layers.2.bias f4 [64]
000000 c0 bf a7 3a 9b 29 d4 3c 40 e5 cb bd 5f d7 ea bc
       0.0012798235 0.025898745 -0.09955835 -0.02866715
000010 fd b2 29 3d be b9 b9 3d b8 06 96 3c 32 9f cd bd
       0.041430462 0.09068631 0.01831375 -0.1004013
000020 81 98 2b 3d 22 41 34 3d 32 72 6f bc 2a 76 e5 bc
       0.041893486 0.044007428 -0.014614629 -0.028010447
000030 5b 73 8f bd 8c c4 c2 3c ab 44 a3 bd 00 88 88 bc
       -0.07004424 0.023775361 -0.07972082 -0.016666412
000040 c2 ba b0 bd 15 a5 4e 3d fe fb 22 bc 09 13 40 bd
       -0.08629371 0.050450403 -0.009947775 -0.046893153
000050 71 c7 e5 bd a4 05 83 be 31 a4 87 3e 86 a1 7d bd
       -0.11219681 -0.2559024 0.26492456 -0.06192162
000060 7e bd 27 bd 71 e3 21 bd 69 77 05 bd 06 01 ac bb
       -0.0409522 -0.039523546 -0.03258458 -0.0052491454
000070 e6 92 66 be 69 86 09 bd cb 9f 2d bd 8f d4 0a 3e
       -0.22516975 -0.03357545 -0.04238872 0.13557647
000080 6a 81 ee bc 93 50 76 bb e4 3f 6f bd 01 84 d4 be
       -0.029114444 -0.0037584647 -0.05841054 -0.4150696
000090 1a a1 1b be 23 c7 f5 bd f6 b7 9c bd aa ec 71 bd
       -0.15198174 -0.12000873 -0.07652275 -0.05906359
0000a0 28 68 28 bc a1 af f2 bd 4a 70 12 3c d9 b2 46 be
       -0.010278739 -0.11849905 0.008937905 -0.19404162
0000b0 fe cc 3e bd 26 c1 46 bd a6 13 80 3e 40 87 95 bc
       -0.046582215 -0.048524044 0.2501499 -0.018252969
0000c0 1c 3e cf bd 08 4d f0 bc 00 a0 32 3b fc d7 78 bd
       -0.10119268 -0.029333606 0.0027256012 -0.060752854
0000d0 0c 7b 6e 3e 41 29 29 bd e7 35 5e 3c a9 fe a1 3d
       0.23289126 -0.04129911 0.013562656 0.07909901
0000e0 40 34 43 bd dd 97 ef bc ad fd a7 3c bb 53 ab 3d
       -0.04765725 -0.029247219 0.020506704 0.0836558
0000f0 ad 2c fc bd 43 31 a2 bd 98 c5 1a 3c bc 7d 0b bc
       -0.12313209 -0.07919552 0.009446524 -0.008513864

layers.4.weight f4 [8, 64]
000000 88 14 86 3d ab a0 9c bd 98 3c c4 bc dd e5 55 3d
       0.06546885 -0.076478325 -0.023954675 0.052221168
000010 0e a7 c7 3d d6 6d 50 3f e3 df 47 bd c7 f2 88 3c
       0.0974866 0.81417596 -0.0487975 0.016717328
000020 53 f8 04 3e 24 67 fe bd de 5f 6a bc 00 e2 11 3d
       0.12985353 -0.12422016 -0.014305083 0.03561592
000030 60 26 bf 3d b6 94 45 3d 17 85 1b 3d 93 c7 9a bd
       0.09333491 0.048237525 0.03796872 -0.07557597
000040 bf 23 ca bd 91 ce e2 bd d7 94 14 bc 7f 59 e6 bd
       -0.09870099 -0.11074556 -0.009068689 -0.11247539
000050 f8 10 55 bd 9b 2c 46 3d 11 ef 1c 3f f0 59 9f bd
       -0.052018136 0.048382383 0.61302286 -0.07780826
000060 62 12 e9 3d 35 44 86 bc 7d 25 64 3d 31 ac 05 3e
       0.11380459 -0.016389946 0.055699814 0.13053967
000070 53 30 9c 3f 10 77 72 3d 64 b3 18 bc 52 3e 2d 3f
       1.2202247 0.059195578 -0.009320114 0.6767322
000080 73 3c b3 bd 2a 1c ed bd c6 a7 15 3d 41 d0 90 be
       -0.08751764 -0.115776375 0.036536954 -0.28283885
000090 58 66 36 3e 99 00 b0 bc d6 5f ba bd 12 f4 a1 3d
       0.17812479 -0.02148466 -0.091003105 0.07907881
0000a0 be fb 6d bd c4 bb 1a 3d 18 5f 62 bd 41 a3 91 3f
       -0.05810141 0.037776724 -0.05526647 1.1377946
0000b0 55 01 18 3d a0 32 d7 3d 51 6f 0f 3f 0c 21 7d bc
       0.037110645 0.10507703 0.5602923 -0.0154497735
0000c0 60 82 cc 3c 7e d9 e5 3d a0 47 0b 3d 5b 0a 54 3d
       0.024964511 0.11223124 0.034003854 0.05176769
0000d0 b5 de 0e 3f ff 30 a4 bd 86 72 af 3d f4 34 23 3f
       0.55808574 -0.08017158 0.085667655 0.63752675
0000e0 0a de 4d 3c 83 92 d8 bd 0c 5e ab bd 15 0a 75 3f
       0.012565145 -0.1057482 -0.083675474 0.9571851
0000f0 f8 9f 6e 3d 16 43 05 3b a8 a0 68 3d 9f f3 96 3d
       0.058258027 0.0020334176 0.05679384 0.07370686
000100 e0 dd 9e bb 31 82 6a 3c 1f 9e 41 bc 8f 82 db 3c
       -0.004848227 0.014313267 -0.011817484 0.026795654
000110 f3 3d ca bd 6e fb 44 3f 7f 7d 00 3d 8c 0f 25 bb
       -0.09875097 0.7694615 0.031369682 -0.0025186269
000120 de 46 2c bd cc 58 d0 bb 8b 2d a5 3c 04 10 0b 3e
       -0.04205977 -0.0063582417 0.020163318 0.13580328
000130 da f5 1d 3e 7d 6f d0 3b b1 51 d5 3b 38 8d 76 3d
       0.15425816 0.0063609467 0.0065099825 0.06019327
000140 b6 b0 a5 bd 58 62 cb bd 9b 1a 2c 3c 37 b3 a8 bc
       -0.080903456 -0.09930867 0.01050439 -0.020593269
000150 05 60 26 3d d4 ad 0d 3f 54 af 1c 3f ce d7 80 bd
       0.040618915 0.55343366 0.6120503 -0.062911615
000160 44 28 54 3d c0 da 9e 3d 90 44 f4 bc 76 7a e4 bc
       0.051796213 0.07756567 -0.02981785 -0.027890425
000170 9b 37 d2 3f 3d 7a d8 bd 98 c1 94 3d 05 97 4a 3f
       1.642322 -0.1057019 0.072634876 0.7913669
000180 5f 75 d5 bd c2 bd 11 bd 2e 81 04 3d c6 20 cd 3e
       -0.104227774 -0.035581358 0.032349758 0.40064067
000190 a6 b4 94 3e 22 e4 e5 3c 4e ea 05 bd 94 d5 56 bd
       0.29044074 0.028062884 -0.032694153 -0.052449778
0001a0 4c ab 8f bc e2 1d 9b 3d 73 1b 9d 3b b1 50 ed 3f
       -0.017537735 0.07574059 0.004794532 1.854025
0001b0 dc 74 17 bd 92 a4 da 3c 54 bf 1b 3f 8f 18 83 bd
       -0.03697668 0.026689801 0.6083882 -0.064011686
0001c0 26 97 31 bc 95 60 8f 3d 0c aa 31 3d cb d5 a5 bb
       -0.010839259 0.070008434 0.04337506 -0.0050608865
0001d0 8e 99 28 3f 0e a3 d7 bd 9f 71 90 ba 36 3f 50 3f
       0.65859306 -0.10529147 -0.001102019 0.8134645
0001e0 e6 f4 a3 3e b2 5f 1d 3d c9 86 d0 bc ec d9 8a 3f
       0.3202278 0.03842134 -0.025454896 1.0847754
0001f0 1a 2d 95 3d b4 3e 9e bd fa 40 8f 3d 93 f7 d0 bd
       0.07283993 -0.077268034 0.06994815 -0.10203471
000200 c0 b2 36 bb cb ee b0 ba a1 04 82 3d 07 10 3e bd
       -0.002787754 -0.00134989 0.06348539 -0.046402004
000210 5d 72 47 3d 20 51 7b 3f 8b 18 84 3d 03 f1 14 bd
       0.04869305 0.9817066 0.06449994 -0.03636266
000220 9f 91 d3 bd 08 48 a8 bc 8d f1 fc 39 4d 0c 7c 3c
       -0.103305094 -0.02054216 0.00048245155 0.015383792
000230 7d 50 d8 bd 7e 8b 8b 3a b5 f0 01 be a6 37 7b bd
       -0.10562227 0.001064643 -0.12689479 -0.061332367
000240 4c 61 36 bd b6 3d 86 3d 3f 1b a8 3d b9 4c e5 bd
       -0.044526383 0.06554739 0.08208322 -0.11196274
000250 dc 39 cf 3a d1 60 da be 3e e6 3f 3f b2 98 da bd
       0.001581009 -0.4265199 0.74960697 -0.106736556
000260 ec 7d 04 be 5d ab 36 3d b9 f8 9d 3d ce 6d db bc
       -0.1293866 0.04459702 0.07713456 -0.026785757
000270 a7 17 d6 3f 70 83 cc 3c 8c 6b 7c bd 4d 9a 70 3f
       1.6725968 0.024965018 -0.061626002 0.93985444
000280 14 2d 33 3d 1c f2 c1 3c 2d b3 b8 bd dd f7 e4 be
       0.04374416 0.023675017 -0.0901855 -0.44720355
000290 49 29 03 3e 6e 73 4d bc 73 6c 49 3d f8 e0 8b bc
       0.12808718 -0.012539728 0.04917569 -0.017075047
0002a0 18 4f 64 bd 65 c9 34 3d e5 14 6e b9 56 8a d1 3f
       -0.055739492 0.044137377 -0.00022705233 1.6370342
0002b0 dc 37 d9 3d 74 dc 4a 3d dd 7a 49 3f ef 57 0a bc
       0.106063575 0.049526647 0.787031 -0.008443817
0002c0 37 ef 3c 3a 4b e8 6e bd 2c b2 db 3d e2 51 20 3c
       0.00072072766 -0.058327 0.10727343 0.009785147
0002d0 c4 aa 55 3f 7e 28 0e 3d 2e c3 3d bd eb 56 7d 3f
       0.8346369 0.034706585 -0.046328716 0.9896075
0002e0 41 f3 a1 be 4a 0b fb 3c 1a f1 82 3d be 4c 9c 3f
       -0.316309 0.030645031 0.06393643 1.221092
0002f0 5a c4 94 3c b4 11 41 3c 98 df 1a 3d 2c c5 84 bd
       0.018160034 0.011784006 0.037810892 -0.0648292
000300 80 11 5f bb 67 5f a4 3d f0 e6 cc 3d a6 55 f9 3c
       -0.003403753 0.08026009 0.10004985 0.030436348
000310 d7 c6 8c 3d 6a 56 25 3f 5e d3 93 3d 19 91 23 3d
       0.06873863 0.6458498 0.072180495 0.039933298
000320 2e 79 13 bd 70 e7 4b bd c2 31 ac bc 30 8c 4a 3c
       -0.036004238 -0.049781263 -0.02101982 0.012362525
000330 c4 34 15 bd e9 93 b0 3d 99 8a 64 3c af 56 da bc
       -0.036427274 0.086219616 0.01394906 -0.026652662
000340 cb a7 b3 3d 2d 20 0a 3d fe cd 1d 3d 57 dd a2 3c
       0.08772238 0.03372209 0.038526528 0.019880934
000350 10 7e 7c 3d f6 64 16 3d cc f3 0f 3f 95 5e 9d bd
       0.06164366 0.036717378 0.5623138 -0.07684056
000360 01 4a 9c bd bb 41 e6 3d 01 70 3f 3d 7c d8 f2 3d
       -0.076313026 0.11243006 0.046737675 0.11857697
000370 52 39 80 3f e6 16 d7 bd 0f 9a ad bd f5 13 21 3f
       1.0017493 -0.105024144 -0.0847665 0.62921077
000380 7c b4 1f bc 7e cb ce 3d f8 09 86 3d 6e 6a c6 bd
       -0.009747621 0.10097407 0.0654487 -0.096882686
000390 a4 fb 64 3e 5c c1 24 3d 90 79 1b 3d 80 10 ac 3a
       0.22361618 0.040223464 0.037957728 0.0013127476
0003a0 0c 59 0f bc e5 54 00 be 5d d5 5a bd 2d b4 89 3f
       -0.008749258 -0.12532385 -0.053426135 1.075811
0003b0 f9 d8 fa bc fe 32 c8 bb 7c 2c 17 3f 03 d6 92 bd
       -0.030621039 -0.0061095944 0.5905225 -0.07169726
0003c0 b6 2e 82 3d 01 0c 70 bc 40 10 49 bd 60 c0 d6 bd
       0.06356566 -0.014651299 -0.049087763 -0.10485911
0003d0 08 c3 04 3f 8b 2c d1 3d 83 81 d9 3d 48 87 41 3f
       0.51860094 0.10213574 0.106204055 0.7559705
0003e0 80 75 d0 3d a4 5b 73 3c 8f 61 c6 3d 0a ea 52 3f
       0.10178661 0.014853392 0.096865766 0.82388365
0003f0 34 28 2b 3d 2f 84 d4 bd f6 26 cb bd 50 2b aa 3d
       0.041786388 -0.103767745 -0.099195406 0.083090425

layers.4.bias f4 [8]
000000 eb a6 af 3e 92 2f fd bc 8e 8b 0d 3f cc b4 e6 3e
       0.34307036 -0.030906472 0.5529107 0.45059812
000010 ec 8e be 3e e4 2d a5 3e 4a 8f b6 3e f9 aa 13 3f
       0.37218416 0.32261574 0.35656196 0.5768276
