dqeaf.pt (torch_old, 594244 bytes, 6 tensors)

layers.0.weight f4 [256, 513]
00000000: 2bb4 c8bc 6c14 a3bc 79a5 013d fe1d 943c
00000010: 9b7a 303d 2ade eabc 670d 043d 943c 693c
00000020: 2838 ecbb 44e0 3dbc 90a5 21bb 0e1b be3c
00000030: 88da e0bc c0bb 7c3a f0e1 9bbb 087b 10bc
00000040: 9e77 2abd 0848 abbb 301a 45bc 440b 22bd
00000050: 7e29 f63c b09d 6a3b 817c 043d 88d4 b7bb
00000060: c0aa 37bb 2149 b7bc fc19 28bc 10a8 a3bb
00000070: 9114 eebc 6cf8 953c 3651 78bc 08d6 873c
00000080: f57b 96bc c7cf 253d 16c5 dd3c 10e3 15bb
00000090: c04f 253b bbff 173d 0100 193d f2e9 07bd
000000a0: 0a7f 0fbd 9f19 8bbc 008f 013c 0097 0eb9
000000b0: 008b 1abb c0ed 803c 3aaf d83c b2a3 19bd
000000c0: 8479 4a3c 461c ac3c 08b1 c9bc 5c80 613c
000000d0: c107 303d 77c9 a1bc 20a9 d7ba a165 0d3d
000000e0: c051 b43a 8027 b83b 8a02 9e3c 80ec b23b
000000f0: 6994 2d3d 98f5 ef3b 697f 83bc c759 d4bc
00000100: 49fb 16bd 5615 9f3c 92b7 d0bc 584d d8bb
00000110: aea4 f83c e2f0 be3c d293 f9bc 44f7 f6bc
00000120: efb0 92bc 70be b3bb e92c 343d 0cb8 653c
00000130: fc7d 1cbd f69a 8d3c 0065 debb bde7 2fbd
00000140: 68fd 373c 2e51 853c 5cfd 53bc f06f cf3b
00000150: 98c7 cfbb 6cec 80bc f670 853c 0040 a239
00000160: 1bde 0cbd 49f0 2a3d 7859 5c3c b0ce 1e3c
00000170: fe4d ca3c 1ecc cd3c 5eb1 ef3c 10b2 273b
00000180: 7449 0ebc 66b5 07bd fec9 aa3c d85a 25bc
00000190: 06c2 9e3c b2ff 1abd b2f0 d4bc 1e66 e13c
000001a0: f3b5 163d 59ab 253d 482d c3bc 3ff7 213d
000001b0: 99c4 aabc 551e 123d a58c 98bc a36d 9bbc
000001c0: 386f 96bb e4f3 ddbc 6444 37bc ad14 80bc
000001d0: ea6a 0bbd 83c6 0dbd 6805 ec3b 17d7 2cbd
000001e0: 90f5 283b 6576 233d 3c32 0c3c 285d f5bc
000001f0: abd4 27bd 5f0f 093d 2d58 87bc 70f3 3cbc
00000200: f2e5 993c 7289 dc3c cd0e 233d 1888 de3b
00000210: 5cc1 553c 97a2 053d a8f4 da3b b002 b4bc
00000220: 6464 98bc e28c e23c 4850 833c 4edb e93c
00000230: 97e2 203d 3845 f33b 4ecf d53c 00ba fdb8
00000240: aca0 433c 960b d5bc 1073 373c 8010 fe3a
00000250: fb1a 89bc 80b2 ddbb 40a9 0d3b b9a9 25bd
00000260: 405f 16bb 26c5 df3c acdc 2ebc 7400 903c
00000270: 9a0d b8bc 8879 da3b f7fe 1c3d 87d8 143d
00000280: 706d 333b a29b c43c 48e9 12bc b35c b8bc
00000290: 28f7 b7bb ee41 f43c 400b 453c 0303 27bd
000002a0: f6be ae3c ee27 03bd 4f5e 13bd a039 013b
000002b0: bd99 323d f646 debc 583b 39bc 006d 6abb
000002c0: 1d6d 21bd 8bdc bdbc d01c cfbb 883a 5dbc
000002d0: a854 f4bb d8ac 1d3c ccab 4b3c 7f75 223d
000002e0: 247d 7d3c 2957 013d 4a7a dbbc d8dc dabc
000002f0: 0627 16bd 4d04 2d3d 413d 2a3d 4033 f93b
00000300: e0ff 24bb 25ae 213d 6bce 02bd fefe 74bc
00000310: 4d08 a5bc 3f0e 08bd e4d0 dabc 85ee 113d
00000320: 1310 143d ec74 75bc 9245 a93c 8833 12bd
00000330: 9064 56bc 5759 123d 0879 cf3b f731 1e3d
00000340: 9095 30bc cc19 48bc 2e7f ecbc c090 b53b
00000350: 75bc 223d 2e1d ef3c 2a72 cebc 0ff4 0bbd
00000360: d0f1 903b d05f 05bb c69e 63bc 8c7b 3d3c
00000370: 8025 c6b9 eab1 a9bc 1ac3 28bd 08a6 203c
00000380: 0ab2 ee3c a427 643c d890 5c3c ec93 653c
00000390: 2d83 8cbc 2a2e d43c a0af 5d3c fa5e 16bd
000003a0: c92e 313d fc03 07bc 6882 013c 7522 273d
000003b0: debd dc3c 2a51 bf3c 0039 613b c898 7b3c
000003c0: 0866 89bb 336b 223d 7e77 08bd f25f f73c
000003d0: eca8 2cbd c47c 293c ecf2 4bbc 60d7 2cbc
000003e0: 1935 dfbc 440c 4e3c 1448 21bc 5b77 053d
000003f0: c6a8 bf3c 40db f73b 0023 573b c548 163d
-0.024499973 -0.019907199 0.031651948 0.018080708 0.043085676 -0.02867039 0.032239344 0.014235634
-0.007208843 -0.011589114 -0.0024665333 0.02320626 -0.027447954 0.0009641014 -0.0047571585 -0.008818395
-0.041617982 -0.0052270927 -0.012030169 -0.039561525 0.030049082 0.0035799555 0.0323453 -0.0056100525
-0.002802536 -0.022373738 -0.010260101 -0.0049944 -0.029062541 0.018306933 -0.015156081 0.01658155
-0.018369654 0.040481355 0.027071517 -0.0022870935 0.0025224537 0.037109118 0.03735352 -0.033182092
-0.035033263 -0.01697999 0.007907629 -0.00013598427 -0.0023581386 0.015738368 0.026450742 -0.037509628
0.012358073 0.021009576 -0.024620548 0.013763513 0.042976145 -0.019749386 -0.0016453601 0.03452075
0.0013757274 0.005619943 0.01928832 0.005460322 0.042377863 0.007322978 -0.016051965 -0.025921715
-0.036860738 0.019419353 -0.025478158 -0.006601017 0.030351963 0.023308221 -0.030465994 -0.030147202
-0.017906634 -0.0054853484 0.043988142 0.014020931 -0.038206086 0.017285805 -0.0067869425 -0.042945612
0.01122985 0.016274061 -0.012938824 0.0063304827 -0.006340932 -0.015737735 0.016289216 0.00030946732
-0.034391504 0.04173306 0.013449065 0.009692833 0.024695393 0.025121745 0.02925938 0.0025588311
-0.008684505 -0.03313198 0.02084827 -0.01009246 0.019379627 -0.037841506 -0.025993679 0.027514514
0.036794614 0.040446613 -0.023825303 0.039542433 -0.020845698 0.035673458 -0.018621752 -0.018973177
-0.004590895 -0.027093835 -0.011185739 -0.015634859 -0.034037508 -0.034613144 0.007202793 -0.042197313
0.0025781132 0.03990783 0.008556899 -0.029951647 -0.0409743 0.033461925 -0.016521538 -0.011532649
0.018786404 0.026921008 0.039809037 0.006791126 0.013046589 0.03262576 0.0066819973 -0.021973938
-0.018602557 0.027655069 0.016029492 0.028546955 0.039278593 0.007424023 0.026099827 -0.00012098625
0.011940163 -0.026006501 0.011196867 0.001938358 -0.016736498 -0.0067656636 0.0021615773 -0.040445063
-0.0022944957 0.027315687 -0.010672729 0.017578341 -0.022467423 0.0066673197 0.03832909 0.03633931
0.0027378462 0.023999993 -0.008966751 -0.02250514 -0.00561418 0.029816594 0.012026608 -0.040774357
0.021331292 -0.0320205 -0.03597861 0.0019718185 0.043603648 -0.027133446 -0.011305653 -0.0035770535
-0.0394107 -0.023176452 -0.0063205734 -0.0135027245 -0.007456381 0.009623729 0.012431096 0.039662834
0.01547173 0.031577263 -0.02679171 -0.026716635 -0.03665831 0.04224043 0.041562323 0.0076049864
-0.0025176927 0.039472718 -0.031935137 -0.014953373 -0.02014556 -0.03321671 -0.026710935 0.03562786
0.036148142 -0.01498149 0.020663057 -0.035693675 -0.013085499 0.035729732 0.0063315667 0.03862187
-0.010777846 -0.012213182 -0.028869238 0.005540937 0.039730508 0.029188719 -0.025200922 -0.0341683
0.0044233575 -0.0020351298 -0.013892835 0.0115651 -0.00037793443 -0.020714719 -0.04120169 0.00980521
0.02913763 0.013925467 0.013462268 0.014012318 -0.017152393 0.025900919 0.013530642 -0.03671167
0.04325751 -0.008240696 0.007904626 0.040804345 0.026946004 0.023354132 0.003436625 0.01535625
-0.0041930713 0.039653014 -0.03331708 0.030197117 -0.042153284 0.010344688 -0.012448054 -0.010549396
-0.027246999 0.012576167 -0.009843845 0.03258453 0.023395907 0.0075639784 0.0032827258 0.036690492

layers.0.bias f4 [256]
00000000: 2499 edbc 3e1c 1c3d 4754 2bbd 1068 1abd
00000010: d481 07bd 2a83 6d3b d88b 223c 1055 673b
00000020: 705b bcbb 7a91 073c 5e0a 0cbd c253 d8bc
00000030: 715f 92bc 4b4b 05bb 96a9 063d fed9 02bd
00000040: 4ba9 d43c 4c4e da3b 829a 173d c9e7 2f3d
00000050: e974 553c c333 99bc 3682 3fbd 806c a73c
00000060: 2591 2dbd 4c05 06bc 828c 2bbd e259 eebc
00000070: 0200 7c3b e917 e03c f2c1 ab3c 8d37 24bd
00000080: f824 4fbd 72be 9b3c 4016 28bc a290 53bc
00000090: 70ac e3bc b1c9 c8bc 21f5 97bc 1250 b73b
000000a0: 7bfc 983c 336b 213d d608 873c 855a 2cbd
000000b0: 7416 14bd 5552 d8bc 9d03 ff3c fc4d fcbc
000000c0: 7071 4dbd 50bd 21bb c843 fcbc 6a9c b33c
000000d0: 2669 d6bb a61f a03c 0cb8 38bc 9b54 1dbc
000000e0: 18d5 123d 132c 3abd 0d97 113d bfd7 d33c
000000f0: 1038 0bbd 0772 38bd 7521 21bd 5a58 f43c
00000100: 8227 b2bc 54d3 4cbd d484 1fbd ada1 1c3d
00000110: 40aa 33bc c954 49bd a7f1 113d 1089 263b
00000120: c9e7 163d a847 90bc ccdc 7b3c cf4a bcbc
00000130: 3025 23bd 80a9 4bba 7187 273d 936e 58bc
00000140: 3330 bfbc 374b 1d3d 76cd 89bc f7a3 313d
00000150: 6c15 07bd 06bb d83c c010 913c 26bf 8c3b
00000160: 0e4a 77bb e74c cfbc 6c26 803c 659f f83b
00000170: f482 04bc 222e 89bc b148 223d d581 12bd
00000180: 9dbc 3ebd 40d6 ed3b 147b 83bb 89bc 053d
00000190: fe6b d43c f1dd 26bd a7cc 18bd 3a49 d43c
000001a0: 3540 4fbd da50 cfbc b2a0 ec3c 04d4 903c
000001b0: 802c e13b 5ca6 093c 9163 69bc cfc2 283d
000001c0: aa10 023d 0030 a8bb c0ad b6ba cfee c3bc
000001d0: c1e0 02bd b16e 343d 30eb 093b 1d8d 00bd
000001e0: 00b8 d738 de3d cc3c 511f 243d c837 a73b
000001f0: fbac 7bbc ddea 0a3d e4ed 193c e7a6 34bd
00000200: 20ea 003b 9a41 d93c bc7c 14bc 53e3 24bd
00000210: 0e9b 31bd 5084 13bd 3359 aebc fd82 07bd
00000220: e9e0 24bd a015 953c 18c4 43bc f0ee 8cbc
00000230: cc2b 673c 74c8 733c 4f30 123d 54bf e83c
00000240: 77b5 09bd 6837 a9bc b642 bf3c 3797 993c
00000250: 18dd 703c b999 09bd abad 963c a9d3 31bd
00000260: 42a3 f3bc 1edb cc3c df76 18bd 953e f3bc
00000270: 8bc8 303d faa1 ed3c ade5 be3c 15bd f0bc
00000280: e1c7 253d 8ae7 83bc 81a0 93bc 4f01 28bd
00000290: 31dc 873b 50e7 58bb 57ef 1bbd d1c1 153d
000002a0: c0be 09bb 05fa 5bbd 9c04 153c 3a1e 4ebc
000002b0: 8082 c4bb 628d 46bd 240f b63c ece5 5fb9
000002c0: e036 a9bc 33a6 44bb 5c08 3a3c 268f e73c
000002d0: 8d3d 083d bb3b c6bb 403d 25bd 5fc5 1b3a
000002e0: 5ccd fabc 1515 183d d6f8 8e3c 38ab fdbb
000002f0: 20ee 23bc eaea a43c cc24 6f3c c195 173d
00000300: 451b 2d3d d0c8 d43c b1a5 f3bc 6e0e 3d3c
00000310: bfe7 033d 6257 d83c 66ed c23c 9cf7 96bb
00000320: 5470 d4bc 1a9d 1f3c a5f1 92bc 4f41 b83c
00000330: c8e0 003d 3565 983c a697 01ba ebb5 053c
00000340: a57c 053d 2e11 993c 1ce9 053d 465a 2e3c
00000350: 1be1 223c 2b66 733c 5a52 3a3c 1fbd 12bd
00000360: ddaf 1fba ae8c 0cbd b7f8 883c 3479 223c
00000370: cd2e 0fbd 6852 95bb 0d19 113d a205 21bd
00000380: e093 7d3b 000e 953a cedd d73c 5090 31bd
00000390: 6d6b 0c3d 7c0f 0cbd eb83 403c 3451 c5bc
000003a0: cfe8 2d3d 58e1 02bc 8e42 f93c 6db6 2b3d
000003b0: b908 89bb 9ccc 4cbc 9371 2a3d b73e ecbc
000003c0: 4045 d9bb 9168 0b3d 00df a1bb cbd0 a3bc
000003d0: f70a 2fbd 8785 103d 1174 283a 6ea8 32bd
000003e0: 4083 ed3a c512 3bbc 5c3e 14bd c1c6 0d3c
000003f0: aa4d 19bd 931c cf3c 38f8 f53b 48a9 d33b
-0.029003687 0.03811287 -0.04182842 -0.037696898 -0.033082798 0.003624151 0.009921037 0.0035298504
-0.005748205 0.00827443 -0.034189574 -0.026407126 -0.017867776 -0.0020339068 0.032876574 -0.031946175
0.025959631 0.0066621657 0.037012585 0.042945657 0.013028362 -0.01870144 -0.04675504 0.020437479
-0.04237475 -0.008179974 -0.041882046 -0.029095594 0.0038452153 0.027355151 0.020966504 -0.04009204
-0.050572366 0.01901171 -0.010259211 -0.012912901 -0.027792186 -0.024510236 -0.018549504 0.005594262
0.01867508 0.039408874 0.016483705 -0.042078514 -0.036154225 -0.026406446 0.031129653 -0.030798905
-0.05015701 -0.002467949 -0.03079404 0.02192517 -0.0065432964 0.019546341 -0.011274349 -0.009602691
0.035847753 -0.04545219 0.035544444 0.025859712 -0.033989012 -0.04503062 -0.039338548 0.029827286
-0.021747354 -0.050006226 -0.038945034 0.038240124 -0.010965884 -0.049153123 0.03563085 0.0025411285
0.03684214 -0.017612293 0.015372466 -0.02298489 -0.039830387 -0.0007769093 0.04090065 -0.013209957
-0.023338413 0.03840181 -0.016821604 0.04336926 -0.032979414 0.026456367 0.017708182 0.0042952476
-0.003773335 -0.025305225 0.015643321 0.0075873607 -0.008087862 -0.01674563 0.039620105 -0.03576835
-0.046566594 0.0072582066 -0.004012475 0.032650504 0.025930401 -0.040739004 -0.037304547 0.025913823
-0.050598342 -0.025307108 0.02888522 0.017679222 0.00687176 0.00840148 -0.01424493 0.04120141
0.031754173 -0.005132675 -0.001393728 -0.023917584 -0.031952623 0.044050876 0.0021044724 -0.031384576
0.000102862716 0.024931844 0.04006893 0.005103085 -0.015361066 0.03391539 0.009395096 -0.044104483
0.00196708 0.02652054 -0.009062942 -0.040255856 -0.043360762 -0.036014855 -0.021282768 -0.033083905
-0.040253554 0.018198788 -0.011948608 -0.017203778 0.014109563 0.014879335 0.035690602 0.028411545
-0.033620324 -0.020656303 0.02334724 0.018748863 0.01470115 -0.033593867 0.018393358 -0.043414745
-0.029740933 0.025006827 -0.03722274 -0.029692927 0.043160003 0.0290079 0.023302877 -0.029387036
0.040473823 -0.016101617 -0.01802087 -0.041016873 0.004146122 -0.0033096857 -0.03807005 0.03656179
-0.0021018237 -0.053705234 0.009095337 -0.012580449 -0.005997002 -0.048474677 0.022224016 -0.0002135259
-0.02065605 -0.003000629 0.011354532 0.0282665 0.033261824 -0.006049601 -0.040341616 0.00059421913
-0.030615501 0.03712948 0.017452639 -0.007741358 -0.010005504 0.020131547 0.014596175 0.03700805
0.042262334 0.025974661 -0.029742094 0.011539085 0.032203432 0.026408855 0.023794841 -0.004607154
-0.025932468 0.009742046 -0.01793749 0.022492079 0.031464368 0.018602947 -0.0004943557 0.008161048
0.032589573 0.01868495 0.032693014 0.01064164 0.009941365 0.014855902 0.011372173 -0.03582489
-0.00060915743 -0.03431385 0.016720159 0.009916592 -0.034956742 -0.0045569427 0.03542428 -0.039312012
0.0038692877 0.001137197 0.026350882 -0.043350518 0.034282137 -0.034194455 0.011750202 -0.024086572
0.04245835 -0.007988296 0.030427244 0.04192202 -0.004181948 -0.012499955 0.04161222 -0.028838499
-0.0066305697 0.03403527 -0.0049399137 -0.019997021 -0.042735066 0.03528359 0.00064259866 -0.04361766
0.0018120781 -0.011418049 -0.036192283 0.008653344 -0.03742758 0.02528218 0.0075063966 0.006459389

layers.2.weight f4 [64, 256]
00000000: a25b 52bd 207e 3c3c c0b2 0a3b 148b dd3c
00000010: 2059 243d 14af 40bd 37c7 6dbd e845 34bc
00000020: f833 9bbc 82d7 17bd 50f7 2dbd dcb9 d7bc
00000030: 0085 713a fdcd 733e 10fc 8fbb 0ac1 0bbd
00000040: 5cc7 1d3d 6060 b4bb 3035 2dbd 1853 a83c
00000050: aa67 7dbd 0686 0a3d b62a 703d 2a6d 43bd
00000060: a813 aa3c b816 50bc 80c2 1e3a 409a 85bb
00000070: 0021 cc3a 8caf 04bd a869 75bc 10ee c3bc
00000080: 8ab6 693d c01c d63b 7e24 3ebe 44c2 833c
00000090: c426 ae3c 78ee 563c 2add 563d 20f7 ab3c
000000a0: c0e2 ffba c031 aeba f25b 4f3d 18f9 7f3c
000000b0: 48ec 77bd a405 ce3c b046 0c3d ec76 5fbd
000000c0: 1e62 13be 78c5 6f3d 60fd 753d 1664 3a3d
000000d0: 14ca ee3c e070 563b 50b1 b5bd 48a3 b93c
000000e0: b0ec c6bc 2a27 45bd 40af 4f3b 86ad 453d
000000f0: 54bc a83c 9c7b 293d 5cff b93c 9a3a 11bd
00000100: e2d4 08bd 28ce 98bc 8cd2 ac3c b29b 703d
00000110: 1224 613d 2885 133d 08d9 ac3c 76e2 64bd
00000120: eae1 61bd c809 353d c0fe 043d 6524 01be
00000130: b8b5 87bd 4a01 34bd babc 4f3d 28e7 143d
00000140: e47b 843c c07a 6dbc ae61 4cbd 0881 493c
00000150: c8a5 163d c0ab 553d 243d 5cbd d4d2 6cbd
00000160: 3610 0dbd 7c9b 91bc 66de 78bc a7ce 503d
00000170: a8e9 ef3c 3804 553c 22c4 3fbd 9a45 0ac0
00000180: b83b 65be 9cfd de3c 1e2e 543d b67c 10bd
00000190: 2c9c c43c 2e62 79bd c87e 4bbc 84da 2cbd
000001a0: 7a6d 4cbd 0049 fdbb 8659 1cbd e8d6 7e3c
000001b0: 602b 20bc 3e46 673d 9867 43bd 4423 4abd
000001c0: 6014 4e3b d24a 7d3d 1853 7a3c 8085 73bd
000001d0: f85d 0bbd 709e 8e3c 0af6 6bbd b6f3 7f3d
000001e0: 7498 df3c 6835 22bd 20de 7f3d 58bd 1bbd
000001f0: b814 043d 2afe 003d 407b 77bb 5078 58bd
00000200: 5094 f53c a0ca 1c3b 44e9 073d 5eca 9bbd
00000210: 3aee 06bd a2af 12bd 94a2 5c3d 0863 35bc
00000220: 8026 87bb 68a0 2b3f a8a3 223c 0653 70bd
00000230: 9edd 48bd c0b2 983a 3896 68bd 1627 2bbd
00000240: 1ef8 20bd 5089 76bc e4fa 87bc 487c 7cbd
00000250: 94cf acbc 5000 203c 38c1 d03c 3256 6b3d
00000260: d0c5 5a3c 082d 62bc 4025 5fbc d25f 4b3d
00000270: fc7a 48bd f6bf 3d3d 9a54 75bd c4b6 b7bc
00000280: 205c 0abb c0d3 a4ba 2c22 5fbc 38ba b4bc
00000290: b0e1 263c 50a4 4f3c 70bc 5bbc b459 133d
000002a0: ada6 34bd 2af5 4dbc 2066 2fbc 9c52 a83c
000002b0: e8fe e93c 28c6 6d3d 97c0 6bbd a7ee 01be
000002c0: 142f ac3c 5267 c8bd 0010 3039 d222 333d
000002d0: 8cc6 24bd a272 0c3d 143c 9d3c 6ef6 1a3d
000002e0: fef5 3ebd 8061 413c deb5 debd 6cc4 f23c
000002f0: 58e3 6a3d daaf 203d 601d fe3c 28e1 0e3c
00000300: 1032 d3bc ef32 9abd cafc 7e3d 00a8 a8bb
00000310: 9ec3 7c3d e003 e23b 0c6b 703d 9039 19bc
00000320: 003e 023b 40d3 503b 5818 8fbd 0c0c 103d
00000330: 00a0 e538 b8be 0d3c 1260 523d e43c efbc
00000340: a8ef 4e3c 40c0 e7bb 00d4 5dbb 3090 d2bf
00000350: 00c5 ebba b8f9 21be 80b9 213d 9890 20bc
00000360: 7c55 ddbc a5bb 66bd d118 f0bd 9012 4bbc
00000370: 4059 d13a 2657 2bbd 8086 5a3d c66a 3abd
00000380: f44a 72bd 2aed 52bd 6830 14bc 7efd 9fbd
00000390: 5088 74bd 9c67 01bd 260b 6ebd b077 14bd
000003a0: 3897 533d 8014 653b 0a54 4cbd 88cb 5bbd
000003b0: 6c2d fabc c259 48bd 087b 4b3c 8c46 77bd
000003c0: d0b7 90bb 508d 5d3c c0ed d0ba dc0d a43c
000003d0: 5899 04bd 80d1 37bc 9045 dabb e46f 43bd
000003e0: 70c7 dcbc 40c3 8abb b66f 053d b0b2 123d
000003f0: 4c99 49bd 4639 31bd 7292 1d3d b6a1 2bbd
-0.05135692 0.01150468 0.0021163672 0.027043857 0.04012406 -0.047041968 -0.058051314 -0.011002995
-0.018945679 -0.03707076 -0.042472184 -0.026333742 0.0009213239 0.23809047 -0.004394062 -0.034119643
0.038520202 -0.005504653 -0.04228705 0.020547435 -0.06186644 0.03381922 0.058634482 -0.04771153
0.020761326 -0.012700729 0.00060562044 -0.004077226 0.00155738 -0.032393977 -0.014978804 -0.023917228
0.05705885 0.006534189 -0.18568608 0.016083844 0.02125872 0.013118379 0.052457012 0.020991862
-0.0019522533 -0.0013289973 0.050624795 0.015623353 -0.06052807 0.025149174 0.0342471 -0.054556772
-0.14392897 0.05853793 0.06005609 0.045505606 0.029149093 0.0032721087 -0.0887171 0.022660866
-0.024282783 -0.048133053 0.003169015 0.048261188 0.020597614 0.04137765 0.022704773 -0.035456277
-0.033406146 -0.01865299 0.02109649 0.058742233 0.05496604 0.03601566 0.021099582 -0.055880032
-0.05514709 0.04419878 0.03246951 -0.1261154 -0.06626457 -0.04394654 0.050717093 0.03635326
0.016172357 -0.014494598 -0.049897842 0.01229883 0.036779195 0.052165747 -0.053769246 -0.05781825
-0.034439288 -0.017774336 -0.015189743 0.05097833 0.02928622 0.013001494 -0.046817906 -2.1604981
-0.22386062 0.02722054 0.051801793 -0.035275184 0.02400025 -0.060884647 -0.012420364 -0.04220058
-0.049909092 -0.0077296495 -0.038171314 0.015554167 -0.009775966 0.056463473 -0.047706217 -0.04935004
0.003144525 0.061838932 0.0152786 -0.059453487 -0.034025162 0.017409533 -0.057607688 0.06248828
0.027294375 -0.039601713 0.062467694 -0.03802237 0.03224632 0.03149239 -0.0037762672 -0.052849114
0.029977947 0.0023924485 0.033181444 -0.07606958 -0.032942034 -0.035812028 0.053865984 -0.011070974
-0.0041244626 0.67041636 0.009926714 -0.058672927 -0.049039476 0.0011649951 -0.056783885 -0.041785322
-0.039299123 -0.015047386 -0.016599126 -0.06164196 -0.021095075 0.0097656995 0.025482759 0.05745525
0.013352826 -0.013804682 -0.013619721 0.04965193 -0.048945412 0.046325646 -0.059895135 -0.022426017
-0.002111204 -0.0012575313 -0.013618987 -0.022061452 0.010185644 0.0126734525 -0.013411626 0.03597422
-0.044104267 -0.012570659 -0.010705501 0.020547204 0.028563932 0.058050305 -0.057556715 -0.12688695
0.021018542 -0.09785332 0.00016790628 0.04373438 -0.04022841 0.03428901 0.019193687 0.03783267
-0.046621315 0.011803031 -0.10874532 0.029634677 0.05734572 0.039230205 0.031019866 0.008720674
-0.025780708 -0.07529246 0.062252797 -0.0051469803 0.061709993 0.0068974346 0.058695838 -0.009352103
0.001987338 0.0031864196 -0.06987065 0.03516774 0.00010949373 0.008651428 0.05136115 -0.02920384
0.012630381 -0.0070724785 -0.0033848286 -1.6450253 -0.0017987788 -0.15817916 0.039483547 -0.009800099
-0.027018301 -0.056331296 -0.11723483 -0.012394562 0.0015972033 -0.041831158 0.053350925 -0.045511983
-0.059153512 -0.05149571 -0.009044744 -0.07812022 -0.05970031 -0.03159295 -0.0581161 -0.036246955
0.051657885 0.0034954846 -0.049884833 -0.0536609 -0.030539237 -0.048913725 0.01241947 -0.060370013
-0.0044164434 0.013522461 -0.0015939996 0.02002614 -0.032372802 -0.011219382 -0.0066611245 -0.04771413
-0.026950568 -0.0042347014 0.03257724 0.03581494 -0.04921846 -0.04326751 0.03846974 -0.041902266

layers.2.bias f4 [64]
00000000: f0fd 523e 55c3 1a3e e582 8ebd bed5 d3bd
00000010: 4135 ea3e 02ca 8f3d 685e da3e e7bb c1bd
00000020: 838b 8ebd aa39 eebd 4bb0 54bd d1df 923a
00000030: 5264 043f b078 8bbd 2834 57bd 1400 d2bb
00000040: 3f1f 99bd 7825 d13d 3ac4 4abd 722d cebc
00000050: 4b7f a4bd f1bd 06bd 0253 943c 9c22 93bd
00000060: 26fd 283d a101 d9bd 6ae0 48bd 5e82 503d
00000070: 6557 ccbb 314d 46bd 0895 6c3d 4e17 9abc
00000080: 23bc a7bd 0c5b 45bd ea02 85bd 8d6b 99bc
00000090: ba8c 8dbb f843 8dbd 83c3 30bd 3808 4abd
000000a0: 75e1 4ebc 4d0b d3bd 732a 643d 6f9b dfbc
000000b0: e419 57bd cca6 2f3f 709b ae3d f19d b4bd
000000c0: 39d7 9dbc 2cdd 7abe 3e2e 463d 4ce0 703d
000000d0: 64e2 dfbc b251 ccb9 fded 72bd 4e1d 47bd
000000e0: f2d4 d83d 49f8 36bb fcc6 203e 8afa 91bc
000000f0: 8cff 973d 4175 81bd c6f0 4ebd 1155 413f
0.20604682 0.15113576 -0.0695856 -0.103435025 0.45743755 0.07020952 0.4265015 -0.09459668
-0.069602035 -0.11632092 -0.05192594 0.0011205619 0.51715577 -0.06810129 -0.052539974 -0.0064087007
-0.07476663 0.10212225 -0.049503542 -0.025168154 -0.08032092 -0.032895986 0.018105987 -0.071843356
0.041257046 -0.10596014 -0.049042143 0.050905578 -0.006236004 -0.04841346 0.057759315 -0.01880994
-0.08190181 -0.048182532 -0.064946964 -0.018728042 -0.0043197544 -0.0689773 -0.043155205 -0.049324244
-0.012626995 -0.1030489 0.055704545 -0.027295796 -0.052514926 0.68613887 0.08525741 -0.088191874
-0.019267665 -0.24498433 0.048383944 0.058807656 -0.027329631 -0.0003897078 -0.059308995 -0.04861193
0.10587491 -0.0027918986 0.15700907 -0.017819662 0.074217886 -0.063211925 -0.05052259 0.75520426

layers.4.weight f4 [4, 64]
00000000: d57c 173d 2c6f c4be 3ced 3a3d 6da3 03be
00000010: 77d8 eb3e 1722 223f e664 153f a1c5 853d
00000020: bc63 56bd 1a3f 933d 6774 a1bd ca7d 1b3f
00000030: a35d 103e 03b9 32bd c289 c43d 652b 13be
00000040: 5d00 473d 3d9c 143f f918 0bbe 649e d4bd
00000050: 3ff3 81bd c835 e93c 71d5 f03e 2b52 153d
00000060: 4473 5a3d 3c26 c83d 9404 51bd 6b77 e23e
00000070: 7465 43bd ac8b 143d cf86 013f ee8c 8d3c
00000080: 7056 de3c f290 0abe 30e0 e6bd 76cd ffbd
00000090: 21e8 7ebd 82b5 d83d 59d5 043d 5b0a 0d3e
000000a0: 5304 db3e 0a41 91bd 2ad4 193f d3e2 4ebd
000000b0: 1e31 903d a7ff 06bf 92cb 7c3c 2d85 2dbc
000000c0: 75b9 64bd 1927 dc3e 7f7d f63d 6045 cc3e
000000d0: 4416 75bd 8b62 a03c 07d2 efbb 4fe4 ad3d
000000e0: b006 1b3f d2a4 3fbe 6a26 143f 4282 133f
000000f0: 70bc 073f a1fe 8abd 5cd7 96bd ab2f 49bf
00000100: dcd4 42bf b8a8 d53d d59e 993d de5b 853d
00000110: 53f0 073f 9d08 253f 390f 2dbf b6b1 a43d
00000120: ddc4 8ebc aadf be3c a091 35bd cce2 213f
00000130: c342 82bf a61b d9bc 8480 513d 0fe2 62bd
00000140: a36a 77bd 7ff3 283f 8f43 80bd b761 01bd
00000150: 5b63 563d e04f 82bc 5b87 253f 96f4 0d3c
00000160: e953 3b3e ff7b 8e3c 8940 0abc 8fb5 2b3f
00000170: 1e84 acbd 9fc4 2dbc 7066 2b3f d73a 553d
00000180: c801 b7bd a374 90bc d49f 4bbd dd17 11bc
00000190: 9891 a5bd 18b9 8bbb ff94 063e e516 3d3f
000001a0: d756 293f f9c1 913c 1d53 283f f42a 72bd
000001b0: 40e8 853b 51bc 32bf b63c 8bbd 43b2 70bc
000001c0: a774 b6bd 7f73 df3e 6cb5 8ebd 9b82 253f
000001d0: a011 acbd e0ce 9b3c 95f8 8e3a 591b 4dbd
000001e0: 777d 153f 1d2b 17bd ee3b 0a3f 18f1 373f
000001f0: 40be 263f 6140 103c 24f1 cdbd 44aa f9be
00000200: d838 2d3f 3e49 de3f d4fb f9bd 9fe7 1e3c
00000210: 3d88 99bf e85c 243f 7595 643f 082d 96bd
00000220: f1b9 bcbb ad30 6bbd d411 d93d f11f 0d3f
00000230: 04b9 813c 594d 423d 0c00 123d 06a8 b63c
00000240: 3a5c b23c 03c7 013f 01a6 07be e8e6 87bc
00000250: 6c10 c03c 8361 583d 374b 1c3f 662d 76bc
00000260: afdf c1bc 4686 1d3d 6983 9ebc 547e 223f
00000270: 2523 93bc efb9 04be f494 273f fe7d 853d
00000280: 0400 17bd 7a15 7bbd 7249 153d b306 46bd
00000290: 3076 aebc 7918 003d 39c5 8cbc 7927 f13e
000002a0: f5d2 253f 578b bd3d 4a35 203f b346 b8bd
000002b0: 687e 1dbd fa21 60bf 5889 dc3f 37cb 11bd
000002c0: 7963 ef3c abce 4a3f f126 7fbe 5172 1a3f
000002d0: 850e ae3d f8a4 d23b e7f9 8bbd 7e9b 2c3c
000002e0: 68ca 2a3f 8cdd 793d 108e 353f 9f14 1e3f
000002f0: 650d 2a3f 2bed ca3d fbb1 0b3d f7de f1be
00000300: 73e0 913f 8c2a 973f 3b46 393d 9d0d 1b3d
00000310: 02fc 553e 8ca8 273f 425a 5fbe 42a0 2ebd
00000320: b88e 983c 4dbe 52bd db46 aabc e42a 253f
00000330: e5d5 5a3d 381f 053b a8d4 483d f0db febc
00000340: 3a2c 28bd 1ce5 3b3f d5c4 83bd 48f1 053e
00000350: 1418 2c3d 0a40 febd ace1 233f b233 a53d
00000360: b213 3bbf 8870 dfbd 6342 5dbc f2f0 233f
00000370: 959a 28bd cdc1 00bc f399 0b3f f723 83bd
00000380: 9cb7 17be 78c7 33bd c2b9 81bd 50e9 68bc
00000390: db98 50bd 631e cebd af10 c2bc 2abd 953e
000003a0: 35ee 1a3f 4048 223b 4acc 333f 2ab5 96bd
000003b0: 80ce 253d 7517 f7bf fcb9 aa3f 96bd f9bd
000003c0: defd c6bd b01e 0d3f 70c5 dabe df15 4c3f
000003d0: dece bdbd 1259 bbbd c47d 81bd 729b ce3d
000003e0: b12b 333f 2d5e d9bd 1f0c e23e 3525 253f
000003f0: d874 113f 91d0 fd3d 1c64 eabd 7922 14c0
0.036984283 -0.38366067 0.0456364 -0.1285531 0.46063587 0.63333267 0.58357084 0.06531835
-0.052341208 0.0718977 -0.0788353 0.60738814 0.1409822 -0.043633472 0.09596588 -0.14372022
0.04858433 0.580509 -0.13583745 -0.10381773 -0.06345224 0.028468028 0.47037843 0.036455315
0.053332582 0.09772918 -0.051029757 0.44231734 -0.047704175 0.036266014 0.50596327 0.017279115
0.027140826 -0.13531855 -0.11273229 -0.124903604 -0.062233094 0.10581495 0.032430027 0.13773482
0.42776737 -0.07092483 0.6008936 -0.050509285 0.07040618 -0.52733845 0.015429394 -0.010590834
-0.055840928 0.4299858 0.12035655 0.3989668 -0.059835687 0.019578239 -0.0073187384 0.08490812
0.6055708 -0.18715218 0.57871115 0.5762063 0.5302191 -0.06786848 -0.07365295 -0.7858836
-0.7610605 0.10432571 0.07500998 0.06511663 0.5310108 0.6446627 -0.6760135 0.08041708
-0.017427856 0.02330001 -0.044328332 0.6323669 -1.0176624 -0.026502442 0.051147953 -0.055391368
-0.06040443 0.65996546 -0.06262886 -0.03158733 0.052340847 -0.015907228 0.6465966 0.008664271
0.18293728 0.01739311 -0.008438238 0.6707391 -0.08423637 -0.01060596 0.6695318 0.052058067
-0.089358866 -0.017633742 -0.04971297 -0.008855787 -0.080844104 -0.0042640083 0.13142775 0.7386306
0.6614813 0.017792689 0.6575182 -0.059122995 0.0040865242 -0.698186 -0.06798689 -0.014690938
-0.089089684 0.43642804 -0.06968197 0.64652413 -0.08401799 0.019019544 0.0010907823 -0.05007491
0.5839457 -0.03690635 0.53997695 0.71852255 0.6513405 0.008804412 -0.100557595 -0.48762715
0.6766486 1.7366102 -0.122062355 0.009698777 -1.1994702 0.64204264 0.89290553 -0.07332808
-0.0057594706 -0.057419468 0.105991036 0.55126864 0.015835293 0.047437046 0.035644576 0.022296917
0.021772493 0.5069429 -0.13246919 -0.016589597 0.02344533 0.05282737 0.6105227 -0.015025472
-0.023666231 0.03845813 -0.01934977 0.6347401 -0.017961094 -0.12961553 0.6546166 0.06518172
-0.03686525 -0.06129978 0.036446996 -0.048346233 -0.02129659 0.03127334 -0.017183887 0.47100428
0.6477502 0.092550926 0.6258131 -0.0899786 -0.03845063 -0.87551844 1.7229414 -0.03559419
0.029222237 0.792216 -0.24917199 0.60330683 0.08498863 0.006428357 -0.068347745 0.010535119
0.667151 0.0610023 0.70919895 0.61750215 0.6642669 0.099085175 0.034105282 -0.4724042
1.1396621 1.1809859 0.045232993 0.03785478 0.20896915 0.6549156 -0.21811774 -0.042633303
0.018622741 -0.051451016 -0.02078574 0.6451857 0.053426642 0.0020312797 0.04903093 -0.031110734
-0.041057803 0.7339647 -0.06434027 0.13080323 0.04201515 -0.12414558 0.6401622 0.08066501
-0.7307693 -0.109101355 -0.013504597 0.6403953 -0.041163046 -0.007858706 0.5453178 -0.06403344
-0.14816135 -0.0438914 -0.063342586 -0.014215782 -0.050927024 -0.100643896 -0.023689596 0.29245883
0.60519725 0.0024762303 0.70233595 -0.07358773 0.040480137 -1.9304034 1.3338008 -0.12194364
-0.0971639 0.5512495 -0.42728758 0.7972087 -0.092679724 -0.09147848 -0.06322816 0.100882426
0.6998854 -0.10613666 0.44149873 0.645099 0.56818914 0.123932965 -0.114448756 -2.314604

layers.4.bias f4 [4]
00000000: e417 ec3e 2b89 493e c6b4 3b3e 3671 fe3e
0.46111977 0.19681232 0.18330678 0.49695748
